diffusive_flow/diffusive_flow.pth (torch, 20686 bytes, 6 tensors)

layers.0.weight f4 [64, 2]
000000 be f3 1d bf 6a 77 19 3e 59 49 8b bd 6d db 0e bf
       -0.61700046 0.14986959 -0.06801099 -0.5580357
000010 b1 d0 47 bc 9a 16 8e 3d 21 7b 18 3f 4e e1 7b 3e
       -0.012195752 0.06937905 0.5956288 0.24597666
000020 11 12 a2 3d 48 ba 8f be f7 25 d8 3e 7c a7 9b 3e
       0.07913602 -0.2807181 0.42216465 0.30401218
000030 ed cd 83 be dc 80 62 3e 3e 0d 23 bf bf 52 27 3f
       -0.25743046 0.22119468 -0.6369208 0.65360636
000040 a4 d7 0d bf fb 45 ef be ea 89 38 3e 71 4e 76 3e
       -0.55407166 -0.46733078 0.1802136 0.2405336
000050 24 eb 08 be c9 fd 12 3f 26 07 23 3f 40 d7 e3 bb
       -0.13370949 0.57418495 0.6368278 -0.00695315
000060 80 68 11 3f 3d 4b 97 bc 36 99 7a be e1 3a 23 3f
       0.5680008 -0.018468494 -0.24472508 0.6376172
000070 14 3b fb be a3 6e 93 3e 6b 2b b5 be 23 28 10 bf
       -0.4906851 0.28795347 -0.35384688 -0.56311244
000080 18 21 d5 be 24 f5 89 be c7 22 8e be 7b 47 15 3f
       -0.4162681 -0.2694484 -0.27760908 0.58312196
000090 d2 5f f8 3d f9 03 7e 3e bf d0 81 bd 44 62 40 3c
       0.12127651 0.24806203 -0.06338643 0.011742178
0000a0 44 f8 ed bd 37 05 f0 3d 40 fb a3 3e 26 6d 16 bf
       -0.116196185 0.11719745 0.32027626 -0.587603
0000b0 84 59 2e bf b5 fd 02 3f 5a bd 9a be e1 8b 3f 3e
       -0.6810534 0.51168376 -0.3022259 0.18705703
0000c0 22 a0 e7 3e 77 dd 15 3e 1d 1e 51 3d c3 cb c4 3e
       0.4523936 0.14635263 0.05105411 0.38436708
0000d0 51 28 e6 bd 51 24 1a 3e fa d6 18 3f 3a 13 24 bf
       -0.112381585 0.15052916 0.5970303 -0.6409184
0000e0 2f 76 0a 3f 12 c5 32 3f cb a4 04 bf 3e 05 15 bf
       0.54086584 0.69831955 -0.51813954 -0.58211124
0000f0 17 33 05 bf 38 5d f6 3d 70 75 c0 3e 5d fa 30 3e
       -0.5203108 0.12029499 0.37589598 0.17283006
000100 67 f9 21 3f b6 1a 15 3f 10 dd b8 bd 59 19 c6 3e
       0.6327118 0.5824388 -0.09026539 0.38691214
000110 19 bd b8 be 33 b0 c6 3e 13 07 45 3d 77 f2 e0 bd
       -0.3608177 0.38806304 0.04810245 -0.109837465
000120 70 6b a2 3e 08 f1 91 3e 4d 2f 1b 3f bd 15 45 be
       0.31722593 0.28504205 0.6061905 -0.19246574
000130 7c 47 fa 3e 75 a7 0c bf bd 3d be be 91 05 c9 bb
       0.48882663 -0.5494302 -0.37156478 -0.006134697
000140 4f c7 2d 3f 61 f8 c2 3d 24 b4 02 3f d1 a7 00 bf
       0.67882246 0.09520031 0.5105612 -0.5025607
000150 44 ee 1d 3f 73 6b e0 3e 34 03 1e 3d 6e ef 0a bf
       0.6169169 0.43831977 0.038577273 -0.5427159
000160 24 5c 72 3c 28 d7 18 bf 86 4e 08 3f c6 7a f7 3d
       0.014792476 -0.597033 0.5324482 0.12083964
000170 11 ff bb 3d 33 e9 c2 be 3f 0a 99 3e 1d a1 09 3f
       0.091795094 -0.38068542 0.2989063 0.53761464
000180 e5 58 49 be e2 52 25 3e f8 bf 05 3e d0 97 f9 3e
       -0.19662817 0.16144899 0.13061512 0.48748636
000190 07 82 32 bf 55 80 fa 3e 41 1a 26 3f 05 4d 19 bf
       -0.69729656 0.48926035 0.6488381 -0.5988315
0001a0 d3 80 ea bd 91 36 b1 be ca c3 79 be 62 e0 21 bf
       -0.114503525 -0.34611943 -0.24391094 -0.63233006
0001b0 72 ec 33 be 4d 06 28 3d 87 c0 d3 bc 26 c9 30 bf
       -0.17570665 0.041021634 -0.02584864 -0.6905693
0001c0 a7 05 bf be 65 ce c6 3e 6c 2e 31 3f 14 56 df 3e
       -0.37309 0.38829342 0.6921146 0.4362036
0001d0 a9 71 a9 3e 32 8a 2c bf c7 9e a0 be 02 82 ce 3e
       0.33094528 -0.6739837 -0.31371137 0.40333563
0001e0 1b 12 82 be 88 20 2c 3f 38 69 21 be 69 d7 28 bf
       -0.25404438 0.6723714 -0.15762794 -0.6595369
0001f0 61 7a ef bd ac f8 25 3f 16 66 53 be ff 03 6e 3e
       -0.11693264 0.6483257 -0.20644411 0.23243712

layers.0.bias f4 [64]
000000 bd f2 2e 3f 2e af 8d 3e ac a0 0c 3f a0 d6 1e 3f
       0.6833914 0.27672714 0.54932666 0.6204624
000010 7c b9 f6 bd 2b b7 2f 3f 0a b9 a2 3e a0 fb b8 3e
       -0.12047097 0.6863887 0.317818 0.36129475
000020 d2 34 da 3e 3a 1e 05 3e f0 19 0a be e4 31 24 3f
       0.42618424 0.12999812 -0.13486457 0.6413863
000030 7a 62 8e bd 07 47 53 be 8b 2b 24 3c 67 e1 cd bd
       -0.06952377 -0.20632564 0.010020147 -0.10052758
000040 9a 7a f4 3e 2e 5c 9d be a1 d2 87 3e a5 d4 22 bc
       0.47749788 -0.3073439 0.26527885 -0.009938394
000050 6d 06 32 3f 69 b7 00 bf ee 33 15 bf 02 23 00 3f
       0.69541055 -0.5027986 -0.58282363 0.5005342
000060 dd 9a bf 3c 98 1b 3e be 76 55 b3 3e 05 a3 8d 3e
       0.023389274 -0.18565214 0.3502614 0.27663437
000070 f0 9a 0b 3f 31 57 a6 3e 33 8f 3d 3d 51 d6 02 3e
       0.5453329 0.32488397 0.046279144 0.12777068
000080 f1 e2 0c be 7e af a2 3c d5 32 df bd 07 55 21 bf
       -0.13758446 0.019859072 -0.10898367 -0.63020366
000090 4c f9 c0 3d 92 f4 43 3e ef 1d e3 bc 77 66 21 bf
       0.094225496 0.19136265 -0.027724234 -0.63046974
0000a0 6a d6 28 bf 10 5c 82 bd 60 5c 30 3e 67 8b 04 3f
       -0.6595217 -0.06365216 0.17222738 0.5177521
0000b0 52 6d 78 3e 58 f7 22 bf 42 17 52 bd ee 6b 85 be
       0.24260452 -0.63658667 -0.05129171 -0.26058906
0000c0 c7 1f 9a be b4 a3 15 bf 98 39 01 be 08 e3 9b 3d
       -0.3010237 -0.58452916 -0.12619627 0.07611662
0000d0 e6 cd 0f 3f 9f b5 cb be 1b a3 a2 3d a4 20 bd 3e
       0.5617355 -0.39787003 0.07941266 0.36938965
0000e0 b2 76 00 3e 65 e6 e7 bc 73 0b f9 3d 90 34 69 3e
       0.12545279 -0.028308103 0.12160387 0.22773957
0000f0 da 66 e3 be 3b 60 27 bf 7e ae cb 3e 43 43 21 3f
       -0.44414407 -0.6538121 0.39781564 0.6299326

layers.2.weight f4 [64, 64]
000000 74 b5 44 3d 3e 60 a5 bd d9 bb 8b bc 00 a6 b5 bd
       0.04802461 -0.08074997 -0.017057346 -0.088695526
000010 ba 80 e7 3d bb db a5 bb a6 c8 b3 3d 7a 67 45 bc
       0.113038495 -0.0050615943 0.08778505 -0.0120485965
000020 37 8e b8 3c 6d 96 65 3c 85 6e e8 bd d1 17 6d 3d
       0.02252875 0.014012915 -0.11349205 0.05788404
000030 8b 10 4f 3c f0 02 92 bd 73 9c 46 bd 75 a8 ce 3d
       0.0126382215 -0.071294665 -0.048489045 0.100907244
000040 f9 ac 99 3d de 56 fe bd 12 81 5a bd 7b bb 79 3d
       0.07503695 -0.12418912 -0.053345747 0.06096981
000050 79 4c 37 bd dc 87 b5 3c 0c 98 87 3c 30 78 31 3d
       -0.044750664 0.02215951 0.016551994 0.04332751
000060 51 36 a7 3d 42 25 91 3d 9f db fe bc f6 1c 9f 3d
       0.08164657 0.070871845 -0.031110583 0.07769196
000070 71 3b a7 3c 79 73 f5 bb a2 aa bc 3a c6 b2 7d 3d
       0.020414086 -0.007490572 0.0014394114 0.06193807
000080 81 73 da bc 26 60 40 bb aa 59 7d 3d 32 69 bd bd
       -0.026666405 -0.0029354184 0.06185309 -0.0924858
000090 8f 73 87 bd 08 96 d3 bd f2 02 01 3d e5 ac 9c bd
       -0.06613838 -0.103313506 0.03149695 -0.076501645
0000a0 7c 33 5c bc d5 be da 3d bb 17 26 3d bb 77 a9 3d
       -0.013440009 0.106809296 0.040549975 0.0827479
0000b0 60 9b c0 3d b7 94 10 bd c5 73 d3 3d 80 64 d3 3d
       0.094046354 -0.035298076 0.10324816 0.10321903
0000c0 34 44 81 3d 8a 18 2b 3d 73 e6 ac bd a0 3f e1 3d
       0.06311837 0.04177145 -0.08442392 0.10998464
0000d0 c5 ea f7 bd 0c b3 3f bd 59 19 7d bd 52 c5 99 bc
       -0.121053256 -0.04680161 -0.06179175 -0.018770847
0000e0 ad 52 e7 bd 6f 38 b9 3d de 74 2a bd d8 cc 12 bd
       -0.11295066 0.09043967 -0.04161536 -0.035839885
0000f0 76 81 5e 3d 61 6d 9a bc 65 76 e1 bd 9a 2b fb bd
       0.054322682 -0.018850984 -0.1100891 -0.12264176
000100 68 1c a7 bd a0 d2 86 3d 49 5c ca bd d3 d6 3e bd
       -0.08159715 0.06583142 -0.09880883 -0.04659159
000110 e5 eb 82 3c 13 05 ec bd 87 cd 86 bc 4b b1 bc bd
       0.015981624 -0.11524405 -0.016455425 -0.092135035
000120 d0 df ee bc 6e f3 f6 3d 54 3b 74 bd 95 29 d0 bb
       -0.029159456 0.12058149 -0.059626892 -0.006352613
000130 72 94 58 bd 20 82 f5 3c db 3b 82 3c f9 de b9 3d
       -0.052875943 0.029969275 0.015897682 0.09075732
000140 6f 2b 8d 3d 40 65 78 bd 64 be b2 3d 29 d5 fc bc
       0.0689305 -0.060643435 0.087277204 -0.030863361
000150 77 99 cb bb 8d aa a7 bd 07 81 ba bd 6b 6c 62 bd
       -0.006213363 -0.08186827 -0.09106641 -0.055279177
000160 3e a6 9b bd 34 a4 41 bd 86 2c 24 3d 8f 6e 7b 3d
       -0.076000676 -0.047275737 0.040081523 0.061384734
000170 48 12 e3 3d 5f 3a ad 3c 7e 22 f1 bd f1 fb d1 3d
       0.11087471 0.021145998 -0.11774157 0.10253132
000180 23 e5 d2 bd 5d 40 ef bd 7d 50 e1 bd 76 3d ca 3d
       -0.102976106 -0.11682198 -0.1100168 0.09875004
000190 36 e3 95 bd 6b 7d 1f bd b9 bb e0 3d 74 24 55 3d
       -0.07318728 -0.038937967 0.10973305 0.052036718
0001a0 03 a6 2d 3d 76 59 87 3d dd 4e e1 bc 75 0d 4b 3d
       0.04239465 0.0660886 -0.027503425 0.04957338
0001b0 62 35 8a 3d 0a 5c fd 3c c1 57 a0 3c e7 39 98 bd
       0.06748463 0.030927677 0.019573094 -0.07432919
0001c0 e0 22 27 bd 94 a0 bc bd 99 ef 6f bd d9 0c 26 3d
       -0.040804744 -0.09210315 -0.058578108 0.040539596
0001d0 1c 29 43 3d fe 67 a3 3d 44 b7 0f bd df 98 fc 3d
       0.047646627 0.07978819 -0.035086885 0.12333845
0001e0 69 f4 d1 3c 97 64 26 3c 94 e8 bb bd f5 41 ff bd
       0.02562924 0.010155818 -0.0917522 -0.12463752
0001f0 ac 5f 97 3d bc 25 c4 3d 82 fc 1d 3d cf da 15 3d
       0.07391295 0.0957751 0.03857089 0.036585625
000200 d2 51 6a 3d 8c c4 ed 3d 9c 0d f3 3d 99 1e 91 bd
       0.057206936 0.11609754 0.1186783 -0.07085914
000210 36 15 98 3d 6e 13 85 bd fd 65 bd 3c b7 17 9b bd
       0.07425921 -0.064978465 0.02311992 -0.075728826
000220 17 e1 cf bd 34 ac c6 bc bc 5e b9 3d cf 26 ce 3d
       -0.10150354 -0.024252035 0.09051272 0.10065996
000230 81 e0 ea 3d da d7 9b bd c4 28 85 3d 82 89 ea 3d
       0.11468602 -0.0760953 0.06501916 0.11452009
000240 b5 5c 61 3d 56 e6 68 bd 9e a7 bc 3d b1 79 95 3c
       0.055020053 -0.05686029 0.09211658 0.018246504
000250 f1 db f4 3d 8a 05 c3 3d be 6f de bd 9f ab b7 3c
       0.11956013 0.09522541 -0.10861157 0.022420703
000260 d0 b1 a6 3c 7a 74 a1 3d 80 bc be bd 8d 06 33 3d
       0.02034846 0.07883544 -0.09313297 0.04370742
000270 ac 88 5e 3d 79 86 1f 3d 7f 22 97 bc cc dd 95 bb
       0.05432956 0.038946602 -0.018449066 -0.0045735594
000280 2d 6c eb 3d 17 33 4c bc b0 9b 50 bd c8 a3 95 bc
       0.11495242 -0.012463353 -0.050929725 -0.018266574
000290 ab 92 ed bd bb 19 e4 3d e9 ea a1 bc 85 19 16 3d
       -0.1160024 0.1113772 -0.019765334 0.03664543
0002a0 1b ca 93 3d 65 12 b0 bd b4 77 29 3d a0 08 01 bc
       0.07216283 -0.085972585 0.041373923 -0.0078755915
0002b0 72 92 b4 bb 57 23 8b 3d 9b dd aa 3d 50 2c 62 3c
       -0.0055106217 0.0679385 0.08343049 0.01380451
0002c0 79 b4 db bd c7 2d cb bc 4b a6 34 3d 63 4d 06 3c
       -0.10727782 -0.024802102 0.0441039 0.008197161
0002d0 fa 09 44 3d 71 54 e1 3d 63 60 d0 bd 02 0d b5 3d
       0.047861077 0.11002434 -0.10174634 0.08840372
0002e0 b0 3f e4 bd 79 1a b1 bd 64 63 21 3c f2 05 fb bd
       -0.1114496 -0.086476274 0.009850357 -0.12256993
0002f0 ca 70 b2 3d 68 63 aa bd 2a ab d3 bd 2e df dd 3d
       0.08712919 -0.083197415 -0.10335381 0.10833584
000300 06 fe 7b 3d 0e e3 e1 bd f7 6b ce bd e8 41 09 bd
       0.061521553 -0.11029635 -0.100791864 -0.03351012
000310 ab 0b c3 bd 04 bd f3 3d 5e eb f0 bc b8 16 91 bd
       -0.0952371 0.11901286 -0.029409107 -0.070844114
000320 33 1e 5e bd ff 12 94 bd a3 29 ed bd cb 9c 99 3d
       -0.05422802 -0.07230186 -0.11580207 0.07500609
000330 d8 44 d5 bd 9c ae 48 bd e8 29 c7 3d c5 58 1d 3b
       -0.104135215 -0.048994645 0.0972479 0.002400921
000340 68 e8 e9 bd 52 2d da bd ff b1 87 bc 18 28 f1 bd
       -0.11421281 -0.106531754 -0.016564367 -0.117752254
000350 36 70 4b bd dc 3e 16 bd 60 1f eb 3b a3 7a aa bd
       -0.04966756 -0.03668104 0.007175371 -0.08324172
000360 0b 59 dc 3d 2d f9 95 bc 02 7a f7 3d 22 13 7f bd
       0.10759171 -0.018307293 0.12083818 -0.062274106
000370 a2 4f fa bc a3 b0 da 3d 90 73 36 bd f3 86 bd bd
       -0.03055555 0.10678222 -0.044543803 -0.09254255
000380 d6 fe 47 3d c5 2c 89 3d c0 5a 77 bc 4e 0c d9 bd
       0.048827015 0.06697992 -0.01509732 -0.1059805
000390 bf 2f f2 3d 66 11 ab 3d 39 af de 3d 90 f4 60 bc
       0.11825513 0.08352928 0.10873265 -0.013730183
0003a0 5c 80 11 3c 95 88 dc 3d d0 47 ed bd 16 32 38 bc
       0.008880701 0.107682385 -0.11585963 -0.01124241
0003b0 9a 81 85 bd 1e 28 ad bd 91 7f fd bd 19 69 c8 bc
       -0.0651886 -0.08454917 -0.12377847 -0.024464177
0003c0 40 9f 81 bd e5 03 d1 3d 28 09 da bd 57 a1 8d bd
       -0.06329203 0.10205821 -0.10646278 -0.06915539
0003d0 ea a4 b5 bd 1f fa eb bd c0 f0 2c 3d 93 1d d2 3d
       -0.088693455 -0.11522316 0.042221785 0.10259547
0003e0 b8 36 eb 3c 95 2f 6b bb ad 7b ab 3d 72 55 32 bd
       0.028712615 -0.0035886515 0.08373199 -0.04353852
0003f0 b2 09 ea bd d9 e4 70 3c eb c5 51 3d 8e 3f d4 ba
       -0.114276305 0.014702999 0.05121414 -0.0016193257

layers.2.bias f4 [64]
000000 09 26 58 bc 38 0f e2 3d 8d f4 12 bc 5a c8 c3 bb
       -0.013192662 0.11038059 -0.008969438 -0.0059748115
000010 6d 80 98 bd e3 1b c1 bc 21 0d b6 3d 2f 7c f3 bd
       -0.0744637 -0.023572868 0.08889223 -0.118889205
000020 d4 f8 81 3d c0 fe d3 bb de 1d af 3d f6 92 db 3c
       0.06346288 -0.0064695776 0.085506186 0.026803475
000030 1c 04 a2 bd c8 7c 85 3d b1 50 5a 3d a9 3f f5 3d
       -0.0791094 0.06517941 0.05329961 0.11975033
000040 a4 2b c8 3d c9 c9 ab bd 29 07 cf 3d 45 7f 13 bd
       0.09773949 -0.08388097 0.101087876 -0.036010046
000050 18 0b b2 3c 1e b8 99 3c d1 8f 8a bd 01 59 d1 3d
       0.021733806 0.018764552 -0.06765712 0.10222054
000060 73 05 dd 3d e4 ee 2b bd 78 c9 8a bd b0 43 c5 3d
       0.10792055 -0.04197587 -0.06776708 0.09632051
000070 f5 64 a9 3c b7 49 a7 bd 31 d7 fd bd 08 8a 35 bd
       0.020678023 -0.08168357 -0.1239456 -0.04432109
000080 c2 4f 27 3d e5 f7 80 bc 3f 94 b8 bd bf 8c 10 bd
       0.040847547 -0.015743205 -0.09012651 -0.035290476
000090 a6 15 b1 bd e3 7b 95 bd 33 10 57 3c 4e ed 3b bc
       -0.08646707 -0.0729902 0.013126421 -0.011470152
0000a0 99 1a 1e 3c 7c f4 bd 3d e6 31 62 3d 62 e7 b8 3d
       0.009649896 0.09275147 0.055223368 0.09028508
0000b0 65 78 00 3d db c5 8f bd 37 9c be bd 76 cd 61 bd
       0.031364817 -0.0702016 -0.09307139 -0.055127583
0000c0 6f 4a a5 bd ed f4 ab 3d 83 fc d9 bd b3 96 b4 3d
       -0.08070838 0.08396325 -0.10643866 0.08817806
0000d0 b2 42 ae 3d 31 c0 b3 bd ab 9f e0 3d dd cc b6 bc
       0.08508815 -0.08776892 0.10967954 -0.022314483
0000e0 87 b2 b7 bd ef 02 99 bd 6e ea 53 bd e0 dd ad bd
       -0.08969598 -0.07471263 -0.05173724 -0.08489585
0000f0 f6 3f dd 3d ee dc 1c 3d 14 4f 16 3d aa c5 03 3e
       0.10803215 0.038296632 0.03669651 0.12868372

layers.4.weight f4 [2, 64]
000000 9a dc 56 3d 51 35 41 3c d3 29 ff bc c8 5f 8a bc
       0.052456476 0.011792497 -0.031147873 -0.016891375
000010 92 44 b8 bd ce 80 92 3c 19 9c 74 bb 56 13 15 bb
       -0.08997454 0.017883684 -0.0037324487 -0.002274712
000020 9a 42 98 3d 08 ed 53 3d a5 87 99 3d 35 ea ec bd
       0.07434578 0.051739722 0.07496575 -0.11568109
000030 94 c4 f9 3d e5 08 aa bd 8f a0 b1 3d f8 7d f5 3d
       0.121956974 -0.08302478 0.08673202 0.11986917
000040 97 fa 35 3d 96 68 17 bd 6a 70 8f bd a4 cb 48 3d
       0.044428434 -0.036964975 -0.07003863 0.04902233
000050 28 ed bb bd c7 00 06 3b ec ea 30 bd 3e 29 4d bd
       -0.09176093 0.002044724 -0.04319279 -0.05008816
000060 fa 78 d0 3d 29 bf 0b bc 44 7b 6b bd f4 63 e3 3d
       0.101793244 -0.008529463 -0.057490602 0.11103049
000070 00 60 c5 bb 92 06 d9 3c 16 9d 52 bd 22 dc e3 3c
       -0.006023407 0.02649239 -0.05141934 0.027814928
000080 b5 15 a9 3c 1c b0 35 bb 84 fe 95 bc b3 81 0d bd
       0.020640234 -0.0027723378 -0.01830984 -0.03454752
000090 04 fa b3 bd 7e 8b 7f 3d 09 74 f2 3d 05 82 28 3d
       -0.08787921 0.06238889 0.11838538 0.04113962
0000a0 64 2f f1 3c 6a 52 14 bd 69 45 df 3d 39 b4 62 3c
       0.029441543 -0.03621141 0.10901911 0.013836914
0000b0 56 4b db bd a2 c4 5a 3d b7 d1 68 3d 12 0b a4 3c
       -0.107077286 0.05341018 0.056840625 0.02002481
0000c0 55 90 cb 3c df 1e 09 bc da e3 81 3d 08 99 e0 3d
       0.024849096 -0.008369177 0.06342287 0.109666884
0000d0 d4 20 3a 3d e2 1b 30 bd 65 ab d9 bd 60 2c bb 3d
       0.045441464 -0.04299534 -0.10628394 0.09139323
0000e0 95 3a 4f 3d 96 9b 04 bc b2 1e 9d bd 18 77 45 bc
       0.050592978 -0.008093735 -0.0767187 -0.01205232
0000f0 8c cc 86 3d 44 40 1a 3d fb 47 6d bd b9 1b fd bd
       0.06581983 0.037658945 -0.057929974 -0.12358803
000100 2e ff 39 3d 1c d3 59 bd bb 16 04 3d ba c7 ab bd
       0.045409374 -0.053179845 0.03224824 -0.08387704
000110 5a d1 8d bd 5e b4 db 3d d4 6f 86 bc e2 6c a4 3d
       -0.06924696 0.10727762 -0.016410746 0.0802858
000120 44 a4 3e 3c 06 35 5b 3d ef 42 f8 3d 98 84 b9 3d
       0.011635844 0.053517364 0.121221416 0.090584934
000130 fa e6 ec bd 8c b0 1f 3c 80 2e 1f bc e3 82 a2 3d
       -0.11567493 0.009746682 -0.009715676 0.07935121
000140 9c 46 02 bd 21 48 54 3d a2 c3 2a 3d b1 b9 d5 bd
       -0.03180562 0.0518266 0.041690476 -0.104358084
000150 24 10 48 3d db bd 3b bc 71 db ad bd 5c b2 e3 3d
       0.048843518 -0.011458839 -0.08489121 0.11118004
000160 40 79 36 bc e7 ce 1d bd 60 86 a3 bd 35 71 b2 ba
       -0.011137307 -0.038527396 -0.07984614 -0.0013614061
000170 47 fa 72 3d 3b 08 e6 3d b1 df cb bd 1b 39 4f bc
       0.059320714 0.112320386 -0.09954775 -0.012647892
000180 5d 0c 14 bd eb 13 8d 3d c1 45 d4 bd 98 6f e4 3d
       -0.036144603 0.06888565 -0.10364867 0.11154097
000190 04 b9 d9 3d 83 18 ad 3d 23 b4 90 bb c5 71 53 bd
       0.10630992 0.08451941 -0.004416005 -0.05162217
0001a0 8f 16 ba 3d b9 7d 99 3c 91 52 09 bd dc 51 02 3d
       0.09086334 0.018736707 -0.033526007 0.03181635
0001b0 5a d2 4c bd b2 9b dc 3d f6 8d 0c bd 6b bf dd bc
       -0.050005294 0.10771884 -0.034315072 -0.027068814
0001c0 ae 1f c1 3d 3d 8e b5 3d 3d c8 c2 3d 90 3c e4 bd
       0.094298705 0.088650204 0.09510849 -0.11144364
0001d0 fc 04 f9 3c 1f 1f a6 3b 0b ef 8a bd 0a 79 00 3e
       0.030397885 0.005069628 -0.06783875 0.12546173
0001e0 90 21 52 bd 0d e7 27 3d 30 1b 35 3d b1 c2 8a 3d
       -0.05130154 0.04099183 0.04421538 0.06775416
0001f0 2e ca ba 3d 1a 5b 83 3d c9 25 9b bd 33 1a 20 3c
       0.09120594 0.064138606 -0.07575566 0.009771871

layers.4.bias f4 [2]
000000 64 4b bb bd 8c a6 94 bd
       -0.09145239 -0.07258329
